…
Mon 06 Jan 2025 19:22:25 INFO  [1;35mBuild[0m[1;33m [SequentialFullDataLoader][0m for [1;33m[evaluation][0m with format [1;33m[InputType.POINTWISE][0m
Mon 06 Jan 2025 19:22:25 INFO  [1;35mEvaluation Setting:[0m
	[1;34mGroup by[0m user_id
	[1;34mOrdering[0m: {'strategy': 'by', 'field': 'timestamp', 'ascending': True}
	[1;34mSplitting[0m: {'strategy': 'loo', 'leave_one_num': 2}
	[1;34mNegative Sampling[0m: {'strategy': 'full', 'distribution': 'uniform'}
Mon 06 Jan 2025 19:22:25 INFO  [1;35m[evaluation][0m[1;36m batch_size[0m = [1;33m[256][0m, [1;36mshuffle[0m = [1;33m[False]
[0m
Mon 06 Jan 2025 19:22:28 INFO  RaSeRec(
  (item_embedding): Embedding(12102, 64, padding_idx=0)
  (position_embedding): Embedding(50, 64)
  (trm_encoder): TransformerEncoder(
    (layer): ModuleList(
      (0-1): 2 x TransformerLayer(
        (multi_head_attention): MultiHeadAttention(
          (query): Linear(in_features=64, out_features=64, bias=True)
          (key): Linear(in_features=64, out_features=64, bias=True)
          (value): Linear(in_features=64, out_features=64, bias=True)
          (attn_dropout): Dropout(p=0.0, inplace=False)
          (dense): Linear(in_features=64, out_features=64, bias=True)
          (LayerNorm): LayerNorm((64,), eps=1e-12, elementwise_affine=True)
          (out_dropout): Dropout(p=0.0, inplace=False)
        )
        (feed_forward): FeedForward(
          (dense_1): Linear(in_features=64, out_features=256, bias=True)
          (dense_2): Linear(in_features=256, out_features=64, bias=True)
          (LayerNorm): LayerNorm((64,), eps=1e-12, elementwise_affine=True)
          (dropout): Dropout(p=0.0, inplace=False)
        )
      )
    )
  )
  (LayerNorm): LayerNorm((64,), eps=1e-12, elementwise_affine=True)
  (dropout): Dropout(p=0.0, inplace=False)
  (loss_fct): CrossEntropyLoss()
  (aug_nce_fct): CrossEntropyLoss()
  (sem_aug_nce_fct): CrossEntropyLoss()
  (seq_tar_ram): CrossMultiHeadAttention(
    (query): Linear(in_features=64, out_features=64, bias=True)
    (key): Linear(in_features=64, out_features=64, bias=True)
    (value): Linear(in_features=64, out_features=64, bias=True)
    (attn_dropout): Dropout(p=0.5, inplace=False)
    (dense): Linear(in_features=64, out_features=64, bias=True)
    (LayerNorm): LayerNorm((64,), eps=1e-12, elementwise_affine=True)
    (out_dropout): Dropout(p=0.5, inplace=False)
  )
  (seq_tar_ram_1): CrossMultiHeadAttention(
    (query): Linear(in_features=64, out_features=64, bias=True)
    (key): Linear(in_features=64, out_features=64, bias=True)
    (value): Linear(in_features=64, out_features=64, bias=True)
    (attn_dropout): Dropout(p=0.5, inplace=False)
    (dense): Linear(in_features=64, out_features=64, bias=True)
    (LayerNorm): LayerNorm((64,), eps=1e-12, elementwise_affine=True)
    (out_dropout): Dropout(p=0.5, inplace=False)
  )
  (seq_tar_ram_fnn): FeedForward(
    (dense_1): Linear(in_features=64, out_features=256, bias=True)
    (dense_2): Linear(in_features=256, out_features=64, bias=True)
    (LayerNorm): LayerNorm((64,), eps=1e-12, elementwise_affine=True)
    (dropout): Dropout(p=0.5, inplace=False)
  )
  (tar_seq_ram): CrossMultiHeadAttention(
    (query): Linear(in_features=64, out_features=64, bias=True)
    (key): Linear(in_features=64, out_features=64, bias=True)
    (value): Linear(in_features=64, out_features=64, bias=True)
    (attn_dropout): Dropout(p=0.5, inplace=False)
    (dense): Linear(in_features=64, out_features=64, bias=True)
    (LayerNorm): LayerNorm((64,), eps=1e-12, elementwise_affine=True)
    (out_dropout): Dropout(p=0.5, inplace=False)
  )
  (tar_seq_ram_1): CrossMultiHeadAttention(
    (query): Linear(in_features=64, out_features=64, bias=True)
    (key): Linear(in_features=64, out_features=64, bias=True)
    (value): Linear(in_features=64, out_features=64, bias=True)
    (attn_dropout): Dropout(p=0.5, inplace=False)
    (dense): Linear(in_features=64, out_features=64, bias=True)
    (LayerNorm): LayerNorm((64,), eps=1e-12, elementwise_affine=True)
    (out_dropout): Dropout(p=0.5, inplace=False)
  )
  (tar_seq_ram_fnn): FeedForward(
    (dense_1): Linear(in_features=64, out_features=256, bias=True)
    (dense_2): Linear(in_features=256, out_features=64, bias=True)
    (LayerNorm): LayerNorm((64,), eps=1e-12, elementwise_affine=True)
    (dropout): Dropout(p=0.5, inplace=False)
  )
  (seq_tar_ram_position_embedding_retrieval): Embedding(20, 64)
  (tar_seq_ram_position_embedding_retrieval): Embedding(20, 64)
)[1;34m
Trainable parameters[0m: 1013888
Mon 06 Jan 2025 19:22:35 INFO  [1;32mepoch 0 training[0m [[1;34mtime[0m: 7.30s, [1;34mtrain loss[0m: 835.3499]
Mon 06 Jan 2025 19:22:37 INFO  [1;32mepoch 0 evaluating[0m [[1;34mtime[0m: 1.63s, [1;34mvalid_score[0m: 0.103400]
Mon 06 Jan 2025 19:22:37 INFO  [1;34mvalid result[0m: 
recall@5 : 0.07    recall@10 : 0.1034    recall@20 : 0.1467    recall@50 : 0.2207    ndcg@5 : 0.0445    ndcg@10 : 0.0553    ndcg@20 : 0.0661    ndcg@50 : 0.0807    
…
